…
INFO:stdout:y_train shape:
INFO:stdout: 
INFO:stdout:(50000, 1)
INFO:stdout:

INFO:stdout:Learning rate: 
INFO:stdout: 
INFO:stdout:0.001
INFO:stdout:

INFO:stdout:Model: "model_1"
INFO:stdout:

INFO:stdout:__________________________________________________________________________________________________
INFO:stdout:

INFO:stdout:Layer (type)                    Output Shape         Param #     Connected to                     
INFO:stdout:

INFO:stdout:==================================================================================================
INFO:stdout:

INFO:stdout:input_1 (InputLayer)            (None, 32, 32, 3)    0                                            
INFO:stdout:

INFO:stdout:__________________________________________________________________________________________________
INFO:stdout:

INFO:stdout:conv2d_1 (Conv2D)               (None, 32, 32, 16)   448         input_1[0][0]                    
INFO:stdout:

INFO:stdout:__________________________________________________________________________________________________
INFO:stdout:

INFO:stdout:batch_normalization_1 (BatchNor (None, 32, 32, 16)   64          conv2d_1[0][0]                   
INFO:stdout:

INFO:stdout:__________________________________________________________________________________________________
INFO:stdout:

INFO:stdout:activation_1 (Activation)       (None, 32, 32, 16)   0           batch_normalization_1[0][0]      
INFO:stdout:

INFO:stdout:__________________________________________________________________________________________________
INFO:stdout:

INFO:stdout:conv2d_2 (Conv2D)               (None, 32, 32, 16)   2320        activation_1[0][0]               
INFO:stdout:

INFO:stdout:__________________________________________________________________________________________________
INFO:stdout:

INFO:stdout:batch_normalization_2 (BatchNor (None, 32, 32, 16)   64          conv2d_2[0][0]                   
INFO:stdout:

INFO:stdout:__________________________________________________________________________________________________
INFO:stdout:

INFO:stdout:activation_2 (Activation)       (None, 32, 32, 16)   0           batch_normalization_2[0][0]      
INFO:stdout:

INFO:stdout:__________________________________________________________________________________________________
INFO:stdout:

INFO:stdout:conv2d_3 (Conv2D)               (None, 32, 32, 16)   2320        activation_2[0][0]               
INFO:stdout:

INFO:stdout:__________________________________________________________________________________________________
INFO:stdout:

INFO:stdout:batch_normalization_3 (BatchNor (None, 32, 32, 16)   64          conv2d_3[0][0]                   
INFO:stdout:

INFO:stdout:__________________________________________________________________________________________________
INFO:stdout:

INFO:stdout:add_1 (Add)                     (None, 32, 32, 16)   0           activation_1[0][0]               
INFO:stdout:

INFO:stdout:                                                                 batch_normalization_3[0][0]      
INFO:stdout:

INFO:stdout:__________________________________________________________________________________________________
INFO:stdout:

INFO:stdout:activation_3 (Activation)       (None, 32, 32, 16)   0           add_1[0][0]                      
INFO:stdout:

INFO:stdout:__________________________________________________________________________________________________
INFO:stdout:

INFO:stdout:conv2d_4 (Conv2D)               (None, 32, 32, 16)   2320        activation_3[0][0]               
INFO:stdout:

INFO:stdout:__________________________________________________________________________________________________
INFO:stdout:

INFO:stdout:batch_normalization_4 (BatchNor (None, 32, 32, 16)   64          conv2d_4[0][0]                   
INFO:stdout:

INFO:stdout:__________________________________________________________________________________________________
INFO:stdout:

INFO:stdout:activation_4 (Activation)       (None, 32, 32, 16)   0           batch_normalization_4[0][0]      
INFO:stdout:

INFO:stdout:__________________________________________________________________________________________________
INFO:stdout:

INFO:stdout:conv2d_5 (Conv2D)               (None, 32, 32, 16)   2320        activation_4[0][0]               
INFO:stdout:

INFO:stdout:__________________________________________________________________________________________________
INFO:stdout:

INFO:stdout:batch_normalization_5 (BatchNor (None, 32, 32, 16)   64          conv2d_5[0][0]                   
INFO:stdout:

INFO:stdout:__________________________________________________________________________________________________
INFO:stdout:

INFO:stdout:add_2 (Add)                     (None, 32, 32, 16)   0           activation_3[0][0]               
INFO:stdout:

INFO:stdout:                                                                 batch_normalization_5[0][0]      
INFO:stdout:

INFO:stdout:__________________________________________________________________________________________________
INFO:stdout:

INFO:stdout:activation_5 (Activation)       (None, 32, 32, 16)   0           add_2[0][0]                      
INFO:stdout:

INFO:stdout:__________________________________________________________________________________________________
INFO:stdout:

INFO:stdout:conv2d_6 (Conv2D)               (None, 32, 32, 16)   2320        activation_5[0][0]               
INFO:stdout:

INFO:stdout:__________________________________________________________________________________________________
INFO:stdout:

INFO:stdout:batch_normalization_6 (BatchNor (None, 32, 32, 16)   64          conv2d_6[0][0]                   
INFO:stdout:

INFO:stdout:__________________________________________________________________________________________________
INFO:stdout:

INFO:stdout:activation_6 (Activation)       (None, 32, 32, 16)   0           batch_normalization_6[0][0]      
INFO:stdout:

INFO:stdout:__________________________________________________________________________________________________
INFO:stdout:

INFO:stdout:conv2d_7 (Conv2D)               (None, 32, 32, 16)   2320        activation_6[0][0]               
INFO:stdout:

INFO:stdout:__________________________________________________________________________________________________
INFO:stdout:

INFO:stdout:batch_normalization_7 (BatchNor (None, 32, 32, 16)   64          conv2d_7[0][0]                   
INFO:stdout:

INFO:stdout:__________________________________________________________________________________________________
INFO:stdout:

INFO:stdout:add_3 (Add)                     (None, 32, 32, 16)   0           activation_5[0][0]               
INFO:stdout:

INFO:stdout:                                                                 batch_normalization_7[0][0]      
INFO:stdout:

INFO:stdout:__________________________________________________________________________________________________
INFO:stdout:

INFO:stdout:activation_7 (Activation)       (None, 32, 32, 16)   0           add_3[0][0]                      
INFO:stdout:

INFO:stdout:__________________________________________________________________________________________________
INFO:stdout:

INFO:stdout:conv2d_8 (Conv2D)               (None, 16, 16, 32)   4640        activation_7[0][0]               
INFO:stdout:

INFO:stdout:__________________________________________________________________________________________________
INFO:stdout:

INFO:stdout:batch_normalization_8 (BatchNor (None, 16, 16, 32)   128         conv2d_8[0][0]                   
INFO:stdout:

INFO:stdout:__________________________________________________________________________________________________
INFO:stdout:

INFO:stdout:activation_8 (Activation)       (None, 16, 16, 32)   0           batch_normalization_8[0][0]      
INFO:stdout:

INFO:stdout:__________________________________________________________________________________________________
INFO:stdout:

INFO:stdout:conv2d_9 (Conv2D)               (None, 16, 16, 32)   9248        activation_8[0][0]               
INFO:stdout:

INFO:stdout:__________________________________________________________________________________________________
INFO:stdout:

INFO:stdout:conv2d_10 (Conv2D)              (None, 16, 16, 32)   544         activation_7[0][0]               
INFO:stdout:

INFO:stdout:__________________________________________________________________________________________________
INFO:stdout:

INFO:stdout:batch_normalization_9 (BatchNor (None, 16, 16, 32)   128         conv2d_9[0][0]                   
INFO:stdout:

INFO:stdout:__________________________________________________________________________________________________
INFO:stdout:

INFO:stdout:add_4 (Add)                     (None, 16, 16, 32)   0           conv2d_10[0][0]                  
INFO:stdout:

INFO:stdout:                                                                 batch_normalization_9[0][0]      
INFO:stdout:

INFO:stdout:__________________________________________________________________________________________________
INFO:stdout:

INFO:stdout:activation_9 (Activation)       (None, 16, 16, 32)   0           add_4[0][0]                      
INFO:stdout:

INFO:stdout:__________________________________________________________________________________________________
INFO:stdout:

INFO:stdout:conv2d_11 (Conv2D)              (None, 16, 16, 32)   9248        activation_9[0][0]               
INFO:stdout:

INFO:stdout:__________________________________________________________________________________________________
INFO:stdout:

INFO:stdout:batch_normalization_10 (BatchNo (None, 16, 16, 32)   128         conv2d_11[0][0]                  
INFO:stdout:

INFO:stdout:__________________________________________________________________________________________________
INFO:stdout:

INFO:stdout:activation_10 (Activation)      (None, 16, 16, 32)   0           batch_normalization_10[0][0]     
INFO:stdout:

INFO:stdout:__________________________________________________________________________________________________
INFO:stdout:

INFO:stdout:conv2d_12 (Conv2D)              (None, 16, 16, 32)   9248        activation_10[0][0]              
INFO:stdout:

INFO:stdout:__________________________________________________________________________________________________
INFO:stdout:

INFO:stdout:batch_normalization_11 (BatchNo (None, 16, 16, 32)   128         conv2d_12[0][0]                  
INFO:stdout:

INFO:stdout:__________________________________________________________________________________________________
INFO:stdout:

INFO:stdout:add_5 (Add)                     (None, 16, 16, 32)   0           activation_9[0][0]               
INFO:stdout:

INFO:stdout:                                                                 batch_normalization_11[0][0]     
INFO:stdout:

INFO:stdout:__________________________________________________________________________________________________
INFO:stdout:

INFO:stdout:activation_11 (Activation)      (None, 16, 16, 32)   0           add_5[0][0]                      
INFO:stdout:

INFO:stdout:__________________________________________________________________________________________________
INFO:stdout:

INFO:stdout:conv2d_13 (Conv2D)              (None, 16, 16, 32)   9248        activation_11[0][0]              
INFO:stdout:

INFO:stdout:__________________________________________________________________________________________________
INFO:stdout:

INFO:stdout:batch_normalization_12 (BatchNo (None, 16, 16, 32)   128         conv2d_13[0][0]                  
INFO:stdout:

INFO:stdout:__________________________________________________________________________________________________
INFO:stdout:

INFO:stdout:activation_12 (Activation)      (None, 16, 16, 32)   0           batch_normalization_12[0][0]     
INFO:stdout:

INFO:stdout:__________________________________________________________________________________________________
INFO:stdout:

INFO:stdout:conv2d_14 (Conv2D)              (None, 16, 16, 32)   9248        activation_12[0][0]              
INFO:stdout:

INFO:stdout:__________________________________________________________________________________________________
INFO:stdout:

INFO:stdout:batch_normalization_13 (BatchNo (None, 16, 16, 32)   128         conv2d_14[0][0]                  
INFO:stdout:

INFO:stdout:__________________________________________________________________________________________________
INFO:stdout:

INFO:stdout:add_6 (Add)                     (None, 16, 16, 32)   0           activation_11[0][0]              
INFO:stdout:

INFO:stdout:                                                                 batch_normalization_13[0][0]     
INFO:stdout:

INFO:stdout:__________________________________________________________________________________________________
INFO:stdout:

INFO:stdout:activation_13 (Activation)      (None, 16, 16, 32)   0           add_6[0][0]                      
INFO:stdout:

INFO:stdout:__________________________________________________________________________________________________
INFO:stdout:

INFO:stdout:conv2d_15 (Conv2D)              (None, 8, 8, 64)     18496       activation_13[0][0]              
INFO:stdout:

INFO:stdout:__________________________________________________________________________________________________
INFO:stdout:

INFO:stdout:batch_normalization_14 (BatchNo (None, 8, 8, 64)     256         conv2d_15[0][0]                  
INFO:stdout:

INFO:stdout:__________________________________________________________________________________________________
INFO:stdout:

INFO:stdout:activation_14 (Activation)      (None, 8, 8, 64)     0           batch_normalization_14[0][0]     
INFO:stdout:

INFO:stdout:__________________________________________________________________________________________________
INFO:stdout:

INFO:stdout:conv2d_16 (Conv2D)              (None, 8, 8, 64)     36928       activation_14[0][0]              
INFO:stdout:

INFO:stdout:__________________________________________________________________________________________________
INFO:stdout:

INFO:stdout:conv2d_17 (Conv2D)              (None, 8, 8, 64)     2112        activation_13[0][0]              
INFO:stdout:

INFO:stdout:__________________________________________________________________________________________________
INFO:stdout:

INFO:stdout:batch_normalization_15 (BatchNo (None, 8, 8, 64)     256         conv2d_16[0][0]                  
INFO:stdout:

INFO:stdout:__________________________________________________________________________________________________
INFO:stdout:

INFO:stdout:add_7 (Add)                     (None, 8, 8, 64)     0           conv2d_17[0][0]                  
INFO:stdout:

INFO:stdout:                                                                 batch_normalization_15[0][0]     
INFO:stdout:

INFO:stdout:__________________________________________________________________________________________________
INFO:stdout:

INFO:stdout:activation_15 (Activation)      (None, 8, 8, 64)     0           add_7[0][0]                      
INFO:stdout:

INFO:stdout:__________________________________________________________________________________________________
INFO:stdout:

INFO:stdout:conv2d_18 (Conv2D)              (None, 8, 8, 64)     36928       activation_15[0][0]              
INFO:stdout:

INFO:stdout:__________________________________________________________________________________________________
INFO:stdout:

INFO:stdout:batch_normalization_16 (BatchNo (None, 8, 8, 64)     256         conv2d_18[0][0]                  
INFO:stdout:

INFO:stdout:__________________________________________________________________________________________________
INFO:stdout:

INFO:stdout:activation_16 (Activation)      (None, 8, 8, 64)     0           batch_normalization_16[0][0]     
INFO:stdout:

INFO:stdout:__________________________________________________________________________________________________
INFO:stdout:

INFO:stdout:conv2d_19 (Conv2D)              (None, 8, 8, 64)     36928       activation_16[0][0]              
INFO:stdout:

INFO:stdout:__________________________________________________________________________________________________
INFO:stdout:

INFO:stdout:batch_normalization_17 (BatchNo (None, 8, 8, 64)     256         conv2d_19[0][0]                  
INFO:stdout:

INFO:stdout:__________________________________________________________________________________________________
INFO:stdout:

INFO:stdout:add_8 (Add)                     (None, 8, 8, 64)     0           activation_15[0][0]              
INFO:stdout:

INFO:stdout:                                                                 batch_normalization_17[0][0]     
INFO:stdout:

INFO:stdout:__________________________________________________________________________________________________
INFO:stdout:

INFO:stdout:activation_17 (Activation)      (None, 8, 8, 64)     0           add_8[0][0]                      
INFO:stdout:

INFO:stdout:__________________________________________________________________________________________________
INFO:stdout:

INFO:stdout:conv2d_20 (Conv2D)              (None, 8, 8, 64)     36928       activation_17[0][0]              
INFO:stdout:

INFO:stdout:__________________________________________________________________________________________________
INFO:stdout:

INFO:stdout:batch_normalization_18 (BatchNo (None, 8, 8, 64)     256         conv2d_20[0][0]                  
INFO:stdout:

INFO:stdout:__________________________________________________________________________________________________
INFO:stdout:

INFO:stdout:activation_18 (Activation)      (None, 8, 8, 64)     0           batch_normalization_18[0][0]     
INFO:stdout:

INFO:stdout:__________________________________________________________________________________________________
INFO:stdout:

INFO:stdout:conv2d_21 (Conv2D)              (None, 8, 8, 64)     36928       activation_18[0][0]              
INFO:stdout:

INFO:stdout:__________________________________________________________________________________________________
INFO:stdout:

INFO:stdout:batch_normalization_19 (BatchNo (None, 8, 8, 64)     256         conv2d_21[0][0]                  
INFO:stdout:

INFO:stdout:__________________________________________________________________________________________________
INFO:stdout:

INFO:stdout:add_9 (Add)                     (None, 8, 8, 64)     0           activation_17[0][0]              
INFO:stdout:

INFO:stdout:                                                                 batch_normalization_19[0][0]     
INFO:stdout:

INFO:stdout:__________________________________________________________________________________________________
INFO:stdout:

INFO:stdout:activation_19 (Activation)      (None, 8, 8, 64)     0           add_9[0][0]                      
INFO:stdout:

INFO:stdout:__________________________________________________________________________________________________
INFO:stdout:

INFO:stdout:average_pooling2d_1 (AveragePoo (None, 1, 1, 64)     0           activation_19[0][0]              
INFO:stdout:

INFO:stdout:__________________________________________________________________________________________________
INFO:stdout:

INFO:stdout:flatten_1 (Flatten)             (None, 64)           0           average_pooling2d_1[0][0]        
INFO:stdout:

INFO:stdout:__________________________________________________________________________________________________
INFO:stdout:

INFO:stdout:dense_1 (Dense)                 (None, 10)           650         flatten_1[0][0]                  
INFO:stdout:

INFO:stdout:==================================================================================================
INFO:stdout:

INFO:stdout:Total params: 274,442
INFO:stdout:

INFO:stdout:Trainable params: 273,066
INFO:stdout:

INFO:stdout:Non-trainable params: 1,376
INFO:stdout:

INFO:stdout:__________________________________________________________________________________________________
…
